==========================================================================================================================================================================
Layer (type:depth-idx)                        Input Shape               Output Shape              Param #                   Kernel Shape              Mult-Adds
==========================================================================================================================================================================
MobileNet                                     [1, 3, 128, 128]          [1, 2]                    --                        --                        --
├─Sequential: 1-1                             [1, 3, 128, 128]          [1, 256, 1, 1]            --                        --                        --
│    └─ConvBlock: 2-1                         [1, 3, 128, 128]          [1, 8, 64, 64]            --                        --                        --
│    │    └─Conv2d: 3-1                       [1, 3, 128, 128]          [1, 8, 64, 64]            216                       [3, 3]                    884,736
│    │    └─BatchNorm2d: 3-2                  [1, 8, 64, 64]            [1, 8, 64, 64]            16                        --                        16
│    │    └─ReLU: 3-3                         [1, 8, 64, 64]            [1, 8, 64, 64]            --                        --                        --
│    └─Sequential: 2-2                        [1, 8, 64, 64]            [1, 16, 64, 64]           --                        --                        --
│    │    └─DwsConvBlock: 3-4                 [1, 8, 64, 64]            [1, 16, 64, 64]           --                        --                        --
│    │    │    └─ConvBlock: 4-1               [1, 8, 64, 64]            [1, 8, 64, 64]            88                        --                        294,928
│    │    │    └─ConvBlock: 4-2               [1, 8, 64, 64]            [1, 16, 64, 64]           160                       --                        524,320
│    └─Sequential: 2-3                        [1, 16, 64, 64]           [1, 32, 32, 32]           --                        --                        --
│    │    └─DwsConvBlock: 3-5                 [1, 16, 64, 64]           [1, 32, 32, 32]           --                        --                        --
│    │    │    └─ConvBlock: 4-3               [1, 16, 64, 64]           [1, 16, 32, 32]           176                       --                        147,488
│    │    │    └─ConvBlock: 4-4               [1, 16, 32, 32]           [1, 32, 32, 32]           576                       --                        524,352
│    │    └─DwsConvBlock: 3-6                 [1, 32, 32, 32]           [1, 32, 32, 32]           --                        --                        --
│    │    │    └─ConvBlock: 4-5               [1, 32, 32, 32]           [1, 32, 32, 32]           352                       --                        294,976
│    │    │    └─ConvBlock: 4-6               [1, 32, 32, 32]           [1, 32, 32, 32]           1,088                     --                        1,048,640
│    └─Sequential: 2-4                        [1, 32, 32, 32]           [1, 64, 16, 16]           --                        --                        --
│    │    └─DwsConvBlock: 3-7                 [1, 32, 32, 32]           [1, 64, 16, 16]           --                        --                        --
│    │    │    └─ConvBlock: 4-7               [1, 32, 32, 32]           [1, 32, 16, 16]           352                       --                        73,792
│    │    │    └─ConvBlock: 4-8               [1, 32, 16, 16]           [1, 64, 16, 16]           2,176                     --                        524,416
│    │    └─DwsConvBlock: 3-8                 [1, 64, 16, 16]           [1, 64, 16, 16]           --                        --                        --
│    │    │    └─ConvBlock: 4-9               [1, 64, 16, 16]           [1, 64, 16, 16]           704                       --                        147,584
│    │    │    └─ConvBlock: 4-10              [1, 64, 16, 16]           [1, 64, 16, 16]           4,224                     --                        1,048,704
│    └─Sequential: 2-5                        [1, 64, 16, 16]           [1, 128, 8, 8]            --                        --                        --
│    │    └─DwsConvBlock: 3-9                 [1, 64, 16, 16]           [1, 128, 8, 8]            --                        --                        --
│    │    │    └─ConvBlock: 4-11              [1, 64, 16, 16]           [1, 64, 8, 8]             704                       --                        36,992
│    │    │    └─ConvBlock: 4-12              [1, 64, 8, 8]             [1, 128, 8, 8]            8,448                     --                        524,544
│    │    └─DwsConvBlock: 3-10                [1, 128, 8, 8]            [1, 128, 8, 8]            --                        --                        --
│    │    │    └─ConvBlock: 4-13              [1, 128, 8, 8]            [1, 128, 8, 8]            1,408                     --                        73,984
│    │    │    └─ConvBlock: 4-14              [1, 128, 8, 8]            [1, 128, 8, 8]            16,640                    --                        1,048,832
│    │    └─DwsConvBlock: 3-11                [1, 128, 8, 8]            [1, 128, 8, 8]            --                        --                        --
│    │    │    └─ConvBlock: 4-15              [1, 128, 8, 8]            [1, 128, 8, 8]            1,408                     --                        73,984
│    │    │    └─ConvBlock: 4-16              [1, 128, 8, 8]            [1, 128, 8, 8]            16,640                    --                        1,048,832
│    │    └─DwsConvBlock: 3-12                [1, 128, 8, 8]            [1, 128, 8, 8]            --                        --                        --
│    │    │    └─ConvBlock: 4-17              [1, 128, 8, 8]            [1, 128, 8, 8]            1,408                     --                        73,984
│    │    │    └─ConvBlock: 4-18              [1, 128, 8, 8]            [1, 128, 8, 8]            16,640                    --                        1,048,832
│    │    └─DwsConvBlock: 3-13                [1, 128, 8, 8]            [1, 128, 8, 8]            --                        --                        --
│    │    │    └─ConvBlock: 4-19              [1, 128, 8, 8]            [1, 128, 8, 8]            1,408                     --                        73,984
│    │    │    └─ConvBlock: 4-20              [1, 128, 8, 8]            [1, 128, 8, 8]            16,640                    --                        1,048,832
│    │    └─DwsConvBlock: 3-14                [1, 128, 8, 8]            [1, 128, 8, 8]            --                        --                        --
│    │    │    └─ConvBlock: 4-21              [1, 128, 8, 8]            [1, 128, 8, 8]            1,408                     --                        73,984
│    │    │    └─ConvBlock: 4-22              [1, 128, 8, 8]            [1, 128, 8, 8]            16,640                    --                        1,048,832
│    └─Sequential: 2-6                        [1, 128, 8, 8]            [1, 256, 4, 4]            --                        --                        --
│    │    └─DwsConvBlock: 3-15                [1, 128, 8, 8]            [1, 256, 4, 4]            --                        --                        --
│    │    │    └─ConvBlock: 4-23              [1, 128, 8, 8]            [1, 128, 4, 4]            1,408                     --                        18,688
│    │    │    └─ConvBlock: 4-24              [1, 128, 4, 4]            [1, 256, 4, 4]            33,280                    --                        524,800
│    │    └─DwsConvBlock: 3-16                [1, 256, 4, 4]            [1, 256, 4, 4]            --                        --                        --
│    │    │    └─ConvBlock: 4-25              [1, 256, 4, 4]            [1, 256, 4, 4]            2,816                     --                        37,376
│    │    │    └─ConvBlock: 4-26              [1, 256, 4, 4]            [1, 256, 4, 4]            66,048                    --                        1,049,088
│    └─AdaptiveAvgPool2d: 2-7                 [1, 256, 4, 4]            [1, 256, 1, 1]            --                        --                        --
├─Linear: 1-2                                 [1, 256]                  [1, 2]                    514                       --                        514
==========================================================================================================================================================================
Total params: 213,586
Trainable params: 213,586
Non-trainable params: 0
Total mult-adds (Units.MEGABYTES): 13.32
==========================================================================================================================================================================
…
