trainable/total params: 514/213586
----------------------------------------------------------------
        Layer (type)               Output Shape         Param #
================================================================
            Conv2d-1             [1, 8, 64, 64]             216
       BatchNorm2d-2             [1, 8, 64, 64]              16
              ReLU-3             [1, 8, 64, 64]               0
         ConvBlock-4             [1, 8, 64, 64]               0
            Conv2d-5             [1, 8, 64, 64]              72
       BatchNorm2d-6             [1, 8, 64, 64]              16
              ReLU-7             [1, 8, 64, 64]               0
         ConvBlock-8             [1, 8, 64, 64]               0
            Conv2d-9            [1, 16, 64, 64]             128
      BatchNorm2d-10            [1, 16, 64, 64]              32
             ReLU-11            [1, 16, 64, 64]               0
        ConvBlock-12            [1, 16, 64, 64]               0
     DwsConvBlock-13            [1, 16, 64, 64]               0
           Conv2d-14            [1, 16, 32, 32]             144
      BatchNorm2d-15            [1, 16, 32, 32]              32
             ReLU-16            [1, 16, 32, 32]               0
        ConvBlock-17            [1, 16, 32, 32]               0
           Conv2d-18            [1, 32, 32, 32]             512
      BatchNorm2d-19            [1, 32, 32, 32]              64
             ReLU-20            [1, 32, 32, 32]               0
        ConvBlock-21            [1, 32, 32, 32]               0
     DwsConvBlock-22            [1, 32, 32, 32]               0
           Conv2d-23            [1, 32, 32, 32]             288
      BatchNorm2d-24            [1, 32, 32, 32]              64
             ReLU-25            [1, 32, 32, 32]               0
        ConvBlock-26            [1, 32, 32, 32]               0
           Conv2d-27            [1, 32, 32, 32]           1,024
      BatchNorm2d-28            [1, 32, 32, 32]              64
             ReLU-29            [1, 32, 32, 32]               0
        ConvBlock-30            [1, 32, 32, 32]               0
     DwsConvBlock-31            [1, 32, 32, 32]               0
           Conv2d-32            [1, 32, 16, 16]             288
      BatchNorm2d-33            [1, 32, 16, 16]              64
             ReLU-34            [1, 32, 16, 16]               0
        ConvBlock-35            [1, 32, 16, 16]               0
           Conv2d-36            [1, 64, 16, 16]           2,048
      BatchNorm2d-37            [1, 64, 16, 16]             128
             ReLU-38            [1, 64, 16, 16]               0
        ConvBlock-39            [1, 64, 16, 16]               0
     DwsConvBlock-40            [1, 64, 16, 16]               0
           Conv2d-41            [1, 64, 16, 16]             576
      BatchNorm2d-42            [1, 64, 16, 16]             128
             ReLU-43            [1, 64, 16, 16]               0
        ConvBlock-44            [1, 64, 16, 16]               0
           Conv2d-45            [1, 64, 16, 16]           4,096
      BatchNorm2d-46            [1, 64, 16, 16]             128
             ReLU-47            [1, 64, 16, 16]               0
        ConvBlock-48            [1, 64, 16, 16]               0
     DwsConvBlock-49            [1, 64, 16, 16]               0
           Conv2d-50              [1, 64, 8, 8]             576
      BatchNorm2d-51              [1, 64, 8, 8]             128
             ReLU-52              [1, 64, 8, 8]               0
        ConvBlock-53              [1, 64, 8, 8]               0
           Conv2d-54             [1, 128, 8, 8]           8,192
      BatchNorm2d-55             [1, 128, 8, 8]             256
             ReLU-56             [1, 128, 8, 8]               0
        ConvBlock-57             [1, 128, 8, 8]               0
     DwsConvBlock-58             [1, 128, 8, 8]               0
           Conv2d-59             [1, 128, 8, 8]           1,152
      BatchNorm2d-60             [1, 128, 8, 8]             256
             ReLU-61             [1, 128, 8, 8]               0
        ConvBlock-62             [1, 128, 8, 8]               0
           Conv2d-63             [1, 128, 8, 8]          16,384
      BatchNorm2d-64             [1, 128, 8, 8]             256
             ReLU-65             [1, 128, 8, 8]               0
        ConvBlock-66             [1, 128, 8, 8]               0
     DwsConvBlock-67             [1, 128, 8, 8]               0
           Conv2d-68             [1, 128, 8, 8]           1,152
      BatchNorm2d-69             [1, 128, 8, 8]             256
             ReLU-70             [1, 128, 8, 8]               0
        ConvBlock-71             [1, 128, 8, 8]               0
           Conv2d-72             [1, 128, 8, 8]          16,384
      BatchNorm2d-73             [1, 128, 8, 8]             256
             ReLU-74             [1, 128, 8, 8]               0
        ConvBlock-75             [1, 128, 8, 8]               0
     DwsConvBlock-76             [1, 128, 8, 8]               0
           Conv2d-77             [1, 128, 8, 8]           1,152
      BatchNorm2d-78             [1, 128, 8, 8]             256
             ReLU-79             [1, 128, 8, 8]               0
        ConvBlock-80             [1, 128, 8, 8]               0
           Conv2d-81             [1, 128, 8, 8]          16,384
      BatchNorm2d-82             [1, 128, 8, 8]             256
             ReLU-83             [1, 128, 8, 8]               0
        ConvBlock-84             [1, 128, 8, 8]               0
     DwsConvBlock-85             [1, 128, 8, 8]               0
           Conv2d-86             [1, 128, 8, 8]           1,152
      BatchNorm2d-87             [1, 128, 8, 8]             256
             ReLU-88             [1, 128, 8, 8]               0
        ConvBlock-89             [1, 128, 8, 8]               0
           Conv2d-90             [1, 128, 8, 8]          16,384
      BatchNorm2d-91             [1, 128, 8, 8]             256
             ReLU-92             [1, 128, 8, 8]               0
        ConvBlock-93             [1, 128, 8, 8]               0
     DwsConvBlock-94             [1, 128, 8, 8]               0
           Conv2d-95             [1, 128, 8, 8]           1,152
      BatchNorm2d-96             [1, 128, 8, 8]             256
             ReLU-97             [1, 128, 8, 8]               0
        ConvBlock-98             [1, 128, 8, 8]               0
           Conv2d-99             [1, 128, 8, 8]          16,384
     BatchNorm2d-100             [1, 128, 8, 8]             256
            ReLU-101             [1, 128, 8, 8]               0
       ConvBlock-102             [1, 128, 8, 8]               0
    DwsConvBlock-103             [1, 128, 8, 8]               0
          Conv2d-104             [1, 128, 4, 4]           1,152
     BatchNorm2d-105             [1, 128, 4, 4]             256
            ReLU-106             [1, 128, 4, 4]               0
       ConvBlock-107             [1, 128, 4, 4]               0
          Conv2d-108             [1, 256, 4, 4]          32,768
     BatchNorm2d-109             [1, 256, 4, 4]             512
            ReLU-110             [1, 256, 4, 4]               0
       ConvBlock-111             [1, 256, 4, 4]               0
    DwsConvBlock-112             [1, 256, 4, 4]               0
          Conv2d-113             [1, 256, 4, 4]           2,304
     BatchNorm2d-114             [1, 256, 4, 4]             512
            ReLU-115             [1, 256, 4, 4]               0
       ConvBlock-116             [1, 256, 4, 4]               0
          Conv2d-117             [1, 256, 4, 4]          65,536
     BatchNorm2d-118             [1, 256, 4, 4]             512
            ReLU-119             [1, 256, 4, 4]               0
       ConvBlock-120             [1, 256, 4, 4]               0
    DwsConvBlock-121             [1, 256, 4, 4]               0
AdaptiveAvgPool2d-122             [1, 256, 1, 1]               0
          Linear-123                     [1, 2]             514
================================================================
Total params: 213,586
Trainable params: 514
Non-trainable params: 213,072
----------------------------------------------------------------
Input size (MB): 0.19
Forward/backward pass size (MB): 14.25
Params size (MB): 0.81
Estimated Total Size (MB): 15.25
----------------------------------------------------------------
peak train: 17631232
…
